models/higgs_classifier_simple.pth (torch, 23507 bytes, 13 tensors)

fc1.weight f4 [64, 28]
0	0x3e100008	0.14062512
1	0x3d82d04b	0.06387385
2	0xbd06e0a5	-0.03292908
3	0x3eb743ba	0.3579386
4	0xbd54dd1d	-0.051968683
5	0xbe7c76a8	-0.24654639
6	0xbd5163dc	-0.051120624
7	0xbdc2c1a1	-0.09509588
8	0x3d961277	0.07327741
9	0xbe55f8d2	-0.20895699
10	0xbd085752	-0.0332864
11	0x3d85f815	0.065414585
12	0x3db3a5a8	0.08771831
13	0x3caf2f70	0.021384925
14	0x3d83f1ab	0.06442579
15	0x3d2168f1	0.03940672
16	0x3e19fd6d	0.1503808
17	0x3e4483b0	0.1919086
18	0xbd534951	-0.05158359
19	0x3d4af469	0.049549494
20	0x3da12911	0.07869161
21	0xbd998888	-0.074967444
22	0xbe7cfbe9	-0.24705471
23	0xbea79eec	-0.32738435
24	0x3cf77571	0.030207368
25	0xbe8b2709	-0.2717822
26	0x3da7daad	0.08196006
27	0xbe0b6f77	-0.13616739
28	0x3d9ff1a6	0.07809763
29	0x3cb0b138	0.02156888
30	0x3d4a3ad9	0.049372528
31	0xbf010d95	-0.5041135
32	0x3d129a01	0.0357914
33	0xbc7098e0	-0.014684886
34	0xbb0cd998	-0.0021492
35	0x3d54972d	0.051901985
36	0x3e83a4f0	0.25711775
37	0x3e102544	0.14076716
38	0xbd3806af	-0.04492825
39	0xbd1e90d2	-0.03871233
40	0x3ca409d3	0.020024216
41	0x3d519897	0.05117091
42	0x3d8af7b1	0.06785525
43	0x3d9dfdc5	0.07714418
44	0x3d9b7e78	0.075924814
45	0xbb1ab3ee	-0.0023605782
46	0xba337be5	-0.000684677
47	0x3d568284	0.052370563
48	0x3ddc5112	0.107576504
49	0xbcdf679e	-0.027271088
50	0xbea55225	-0.32289234
51	0x3e0c735d	0.13715883
52	0xbe9db512	-0.30802208
53	0x3d20f0b8	0.039292067
54	0x3e66745f	0.2250533
55	0x3e69dee1	0.22838928
56	0xbd9a358e	-0.07529746
57	0xbd18a7e0	-0.037269473
58	0x3db033f0	0.08603656
59	0xbc9b6d74	-0.01897309
60	0xbe0def45	-0.13860805
61	0xbdfb58c4	-0.1227279
62	0xbc86d6fe	-0.016459938
63	0xbdbcee46	-0.092251346
64	0x3dd6a1c3	0.10480072
65	0xbf2f7c22	-0.68548787
66	0x3d3f00a4	0.04663147
67	0xbc311d25	-0.010810171
68	0xbe345fb9	-0.1761464
69	0xbdaf0270	-0.08545387
70	0x3db2a9c0	0.087237835
71	0xbdf093a0	-0.11746907
72	0x3d27e8b9	0.040993426
73	0xbe011f2a	-0.12609544
74	0xbd06494a	-0.032784738
75	0xbc989a14	-0.018628158
76	0xbd606fd9	-0.054794166
77	0x3e7447d1	0.23855521
78	0xbe247c7b	-0.1606311
79	0x3d03d7a2	0.032188065
80	0xbe2a4e03	-0.16631322
81	0xbe4de876	-0.20108208
82	0x3eb17973	0.3466297
83	0xbdbbfc9b	-0.0917904
84	0xbdad0a0c	-0.08449182
85	0xbdf6e872	-0.12056054
86	0xbcb26546	-0.021776807
87	0xbe0ee30f	-0.13953803
88	0xbdff696a	-0.12471278
89	0x3de37b21	0.11107469
90	0xbe2c0c5c	-0.1680159
91	0xbd484a2c	-0.04889886
92	0x3c02b13f	0.007976829
93	0x3e9c92e4	0.3058082
94	0xbdb83d33	-0.08996048
95	0xbdbee486	-0.09320931
96	0x3eb9e120	0.3630457
97	0x3d967bfa	0.073478654
98	0x3db706eb	0.089368664
99	0xbe2fc205	-0.17163856
100	0xbe18db30	-0.14927363
101	0x3da3d2fc	0.079992265
102	0xbbd81af0	-0.006595008
103	0xbdb3e99b	-0.08784791
104	0x3da617f1	0.08110035
105	0xbe43270f	-0.19057868
106	0x3d315804	0.04329683
107	0xbe209829	-0.15683044
108	0xbdae1d8e	-0.08501731
109	0xbe837c76	-0.25680894
110	0x3e1f1fdb	0.15539496
111	0xbb12a132	-0.0022373912
112	0x3db92b61	0.09041477
113	0x3cbb6320	0.022874415
114	0xbd0c7d7a	-0.03429935
115	0x3cbdd3ae	0.023172226
116	0xbc934605	-0.017977724
117	0xbd7e6f1a	-0.062117673
118	0xbd312d40	-0.043256044
119	0x3cd0615c	0.02543705
120	0x3dd1f3a1	0.10251547
121	0xbc3b2bae	-0.011423988
122	0x3baaa155	0.0052072206
123	0x3d05755c	0.032582626
124	0x3d8a0699	0.0673954
125	0x3ca7fe33	0.020506954
126	0xbc89a9a9	-0.016804533
127	0x3c3cc1cd	0.011520815
128	0x3d913016	0.0708925
129	0x3de6e8c9	0.11274869
130	0x3d01a1e1	0.03164852
131	0x3c91d971	0.01780388
132	0x3c3b14cb	0.011418532
133	0x3cebf614	0.028803863
134	0xbd4e7f00	-0.050414085
135	0xbdf6fde1	-0.12060142
136	0xbc9432a5	-0.018090555
137	0xbfa6880f	-1.3010272
138	0x3d18524c	0.03718786
139	0x3d764901	0.060128216
140	0x3e69b19a	0.22821656
141	0xbee30070	-0.4433627
142	0xbd38541f	-0.0450021
143	0xbc8e8745	-0.017398486
144	0xbccb116a	-0.024788577
145	0x3b9fa611	0.0048720916
146	0x3e716dc9	0.23577036
147	0x3d01cc6c	0.031689093
148	0xbc853955	-0.01626269
149	0x3d5cfcb9	0.053951953
150	0x3e09f5e4	0.13472706
151	0xbdce5a38	-0.100758016
152	0x3c8a6adb	0.016896656
153	0x3cf27ab0	0.029599518
154	0x3e9afa5c	0.30269134
155	0xbde85fde	-0.1134641
156	0x3d58bf0d	0.052916575
157	0xbd1066cb	-0.03525428
158	0x3e4d905b	0.20074598
159	0xbdbbd8fc	-0.09172246
160	0x3d25d419	0.040485475
161	0xbe1be912	-0.15225628
162	0x3c8afe0e	0.016966846
163	0xbe294f83	-0.16534238
164	0x3ceb7aa0	0.028744996
165	0x3e526989	0.20548071
166	0xbe69ca4d	-0.22831078
167	0x3dc656c7	0.0968452
168	0xbd27586a	-0.040855803
169	0x3b1bbdfc	0.0023764363
170	0x3cc6babb	0.024258962
171	0x3cb733c3	0.02236355
172	0xbb1f002f	-0.0024261584
173	0xbc930d64	-0.017950721
174	0xbc23a73a	-0.0099886
175	0x3b2b4841	0.0026135596
176	0xbca68429	-0.02032669
177	0xba56eccd	-0.0008198738
178	0x3989e344	0.00026300002
179	0xbad1c934	-0.0016005398
180	0xbd19e30b	-0.03757004
181	0xbade8981	-0.0016978235
182	0x3cc0f822	0.023555819
183	0xbb6218dc	-0.003449968
184	0xbd28c06f	-0.041199144
185	0xbb45468c	-0.0030101864
186	0xbc4fbff4	-0.012680043
187	0xbbe81537	-0.007082607
188	0xbcdf68d1	-0.02727166
189	0x3e4e2056	0.20129523
190	0xbccc1972	-0.024914477
191	0x3d47a9aa	0.04874579
192	0xbd9b87c4	-0.075942546
193	0x3f3ab00d	0.7292488
194	0xbed9f06f	-0.4256625
195	0xbd5fc91e	-0.05463516
196	0x3cfcfd8f	0.030882625
197	0xba8413fb	-0.0010076755
198	0x3cd2e1de	0.025742467
199	0x3c704a81	0.014666201
200	0xbc306373	-0.010765898
201	0x3bf31190	0.007417865
202	0x3b924d38	0.0044647716
203	0x3ce8a8ef	0.028400866
204	0xbbc4bac9	-0.006003712
205	0x3b81a9a7	0.0039569917
206	0x3bebf2b5	0.007200564
207	0x3ba4426d	0.0050128014
208	0xbcc59815	-0.02412037
209	0x3c8014a7	0.015634848
210	0xbc079688	-0.008275636
211	0x3bc40ca5	0.0059829527
212	0xbca03af3	-0.01955936
213	0x3c5cc0bd	0.013473687
214	0xbb117423	-0.0022194467
215	0x3c8ebd7c	0.017424338
216	0xbc061fcd	-0.008186293
217	0xbca71fab	-0.020400843
218	0xbc709170	-0.0146831125
219	0x3cb99724	0.022655077
220	0x3d5de0c8	0.054169446
221	0x3eeb827d	0.45997992
222	0xbf67b7f4	-0.90515065
223	0x3debab97	0.115073375
224	0xbe923865	-0.2855865
225	0x3d4f3b87	0.05059388
226	0xbce7fe6e	-0.028319564
227	0xbe1d5f4d	-0.15368386
228	0xbd7b0860	-0.061287284
229	0xbecf22d1	-0.4045625
230	0x3c505558	0.01271566
231	0x3ba29a42	0.0049622366
232	0x3ddafda1	0.10692907
233	0xbe9e86b9	-0.3096216
234	0x3be024c6	0.0068403212
235	0x3c28cac3	0.010302248
236	0x3d5099b3	0.05092783
237	0xbce5a79b	-0.028034022
238	0x3b8ee851	0.0043611904
239	0xbd58e8e7	-0.052956488
240	0xbd4a48bf	-0.049385782
241	0xbdcf7a38	-0.10130733
242	0xbbbb0679	-0.0057075587
243	0xbbd02e51	-0.0063531776
244	0xbdc59c37	-0.09648936
245	0x3e240a21	0.16019489
246	0xbd00d32a	-0.03145138
247	0x3dabe510	0.083932996
248	0x3d016d35	0.03159829
249	0x3f0e6383	0.5562059
250	0xbe499775	-0.19686683
251	0x3cc5374e	0.024074223
252	0x3a0a8b38	0.00052850274
253	0xbda4b3d6	-0.080421135
254	0x3c8299c2	0.015942458
255	0x3d475b91	0.04867131

fc1.bias f4 [64]
0	0xb81e509d	-3.7745212e-05
1	0x377d1b21	1.5086292e-05
2	0xb79a91d3	-1.8426135e-05
3	0x37e14562	2.6854399e-05
4	0xb807e523	-3.239991e-05
5	0xb7b0f304	-2.1093998e-05
6	0x3755cf78	1.2744094e-05
7	0x39083899	0.00012991055
8	0x348c5720	2.6140424e-07
9	0x37d2a7a6	2.5112018e-05
10	0x399b5f5e	0.00029634958
11	0x3797b635	1.808545e-05
12	0xb79e92c8	-1.8903418e-05
13	0x3827bf27	3.9993927e-05
14	0xb8a17779	-7.699332e-05
15	0xb5ea1f83	-1.744353e-06
16	0xb7774d4c	-1.4740344e-05
17	0x36c5db1d	5.8965657e-06
18	0xb74cc16a	-1.220438e-05
19	0xb804097e	-3.1480093e-05
20	0x37b51a72	2.1589196e-05
21	0x37358d31	1.0821314e-05
22	0x361d2d2e	2.342112e-06
23	0x37f4d6de	2.9187122e-05
24	0x376df51e	1.4183372e-05
25	0x371639a8	8.954121e-06
26	0x379648e7	1.7915341e-05
27	0x37987b3f	1.8177203e-05
28	0xb691d19b	-4.345738e-06
29	0xb82befc4	-4.0992876e-05
30	0x37addc0c	2.0725674e-05
31	0x3672a5a7	3.6157232e-06
32	0xb789d00b	-1.642855e-05
33	0xb68f0df4	-4.2633565e-06
34	0xb67769ae	-3.6867382e-06
35	0x378460fd	1.578079e-05
36	0xb619d0b3	-2.2920256e-06
37	0xb7b60830	-2.1699903e-05
38	0xb6d20ea1	-6.2601907e-06
39	0xb792b070	-1.7486716e-05
40	0xb78c7510	-1.6743812e-05
41	0x376e311c	1.419734e-05
42	0x3773a3ce	1.4522067e-05
43	0x3787ed08	1.620363e-05
44	0xb82db22a	-4.1412342e-05
45	0xb7a99d91	-2.0219743e-05
46	0x38652483	5.463186e-05
47	0x376591c6	1.3683404e-05
48	0xb786adde	-1.6055008e-05
49	0x3822dd72	3.8830047e-05
50	0x38059322	3.18467e-05
51	0xb78fc4cd	-1.7138571e-05
52	0x3761ef64	1.3466783e-05
53	0x370e7325	8.490669e-06
54	0x37b61d7a	2.1709817e-05
55	0xb8278e81	-3.994862e-05
56	0x38058a3e	3.183842e-05
57	0x37cfd9a9	2.4777679e-05
58	0xb8050d57	-3.1722095e-05
59	0xb7c724ac	-2.3739725e-05
60	0x35c8d430	1.4962916e-06
61	0xb705c23b	-7.972641e-06
62	0xb5d4d608	-1.5857522e-06
63	0x365e9706	3.3168485e-06

bn1.weight f4 [64]
0	0x3f6b3872	0.91883004
1	0x3f424abf	0.75895303
2	0x3f5311d8	0.824491
3	0x3f2ad6ba	0.66733897
4	0x3f93fcbd	1.1561505
5	0x3f3e9abc	0.74454856
6	0x3f7f3222	0.9968587
7	0x3f93898d	1.1526352
8	0x3f6f0d8b	0.9338004
9	0x3f5cc188	0.86232805
10	0x3f940235	1.1563174
11	0x3f6db66e	0.9285649
12	0x3f865f14	1.0497766
13	0x3f555798	0.8333678
14	0x3f82eeaa	1.0229084
15	0x3f56b3e5	0.8386825
16	0x3f758f23	0.95921534
17	0x3f5e9b7e	0.8695601
18	0x3f5ab498	0.85431814
19	0x3f4ca457	0.7993826
20	0x3f375ff0	0.71630764
21	0x3f56ec56	0.8395437
22	0x3f3a6975	0.72817165
23	0x3f3fab83	0.7487108
24	0x3f4ff0fa	0.81227076
25	0x3f526c9e	0.82196987
26	0x3f55722d	0.83377343
27	0x3f69d927	0.91346973
28	0x3f56faeb	0.8397662
29	0x3f6417b1	0.8909865
30	0x3f585748	0.8450818
31	0x3f4562d1	0.77103907
32	0x3f573151	0.84059626
33	0x3f5e9742	0.8694955
34	0x3f5883ef	0.84576315
35	0x3f6ed580	0.93294525
36	0x3f445f12	0.76707566
37	0x3f50852f	0.8145322
38	0x3f458fe9	0.77172714
39	0x3f3449fd	0.704254
40	0x3f76e533	0.9644348
41	0x3f56958e	0.8382195
42	0x3f4df3c5	0.8045009
43	0x3f596a8e	0.84928215
44	0x3f6049e8	0.8761277
45	0x3f542797	0.8287291
46	0x3f59b892	0.85047257
47	0x3f74df49	0.95653206
48	0x3f6a7ffa	0.91601527
49	0x3f74c6c9	0.9561582
50	0x3f8efbce	1.1170595
51	0x3f74ef84	0.9567797
52	0x3f5068fe	0.81410205
53	0x3f52cd15	0.8234418
54	0x3f695bd4	0.91155744
55	0x3f6bd310	0.9211893
56	0x3f6f9b71	0.9359656
57	0x3f5b8c19	0.8576065
58	0x3f6d8139	0.92775303
59	0x3f794d96	0.9738401
60	0x3f70c026	0.94043195
61	0x3f44da48	0.7689557
62	0x3f43afc8	0.76440096
63	0x3f7784ef	0.96687216

bn1.bias f4 [64]
0	0xbea3851c	-0.31937492
1	0xbeeffea1	-0.46873954
2	0xbed6fa2b	-0.41987738
3	0xbeb39b8f	-0.3507962
4	0xbef17468	-0.47159123
5	0xbf0a7400	-0.5408325
6	0x3bf207bc	0.007386176
7	0xbed4988a	-0.41522628
8	0xbee1522e	-0.4400801
9	0xbed8a8ba	-0.42316228
10	0xbec96a02	-0.3933869
11	0xbed7c0ca	-0.42139274
12	0xbeea20fe	-0.45728296
13	0xbe8b20b4	-0.27173388
14	0xbea85bf7	-0.32882664
15	0x3dc510b0	0.096223235
16	0x3e6a0a8c	0.22855586
17	0xbeedecb6	-0.4646966
18	0xbe99e10b	-0.30054507
19	0xbe2229b5	-0.15836222
20	0xbed42bbd	-0.4143962
21	0xbeae71e0	-0.34071255
22	0xbe3754b5	-0.17903407
23	0xbda4d9d1	-0.08049358
24	0xbee07f2b	-0.4384702
25	0xbe251983	-0.16123013
26	0xbe827e2e	-0.25486892
27	0xbe5ec25e	-0.21753833
28	0xbeaead6f	-0.34116694
29	0xbeee8727	-0.46587488
30	0x3c9767f2	0.018482182
31	0xbdd7f01b	-0.10543843
32	0xbe8a8890	-0.27057314
33	0xbdbb49fd	-0.091449715
34	0xbd1f7d5a	-0.038937904
35	0xbee237b1	-0.44183114
36	0xbe866d35	-0.26255193
37	0xbf08c038	-0.534183
38	0xbe9210ba	-0.28528386
39	0xbe366e94	-0.1781562
40	0xbf032fe5	-0.51244956
41	0xbda505a0	-0.080577135
42	0xbed911b5	-0.42396322
43	0xbe93e830	-0.28888083
44	0xbe97427d	-0.29542914
45	0xbea99e45	-0.33128563
46	0xbebfdc8f	-0.3747296
47	0xbe87de5f	-0.26536843
48	0x3df0249d	0.117257334
49	0xbef79210	-0.48353624
50	0xbf074d01	-0.52851874
51	0xbe96f981	-0.2948723
52	0xbe711c6c	-0.23545998
53	0xbe9a89f9	-0.3018339
54	0xbdfdde99	-0.12395973
55	0xbe703095	-0.23456033
56	0xbf0b5cad	-0.54438287
57	0x3d85bbc4	0.06529954
58	0xbe31d229	-0.17365326
59	0xbe99c24b	-0.30031046
60	0xbe859598	-0.26090693
61	0xbee2de43	-0.44310197
62	0xbebb03a0	-0.36526203
63	0xbeb08cef	-0.34482524

bn1.running_mean f4 [64]
0	0x3c955692	0.018229757
1	0xbcf77794	-0.030208386
2	0x3b340bca	0.0027472847
3	0x3c421ad6	0.0118472185
4	0x3d274e34	0.040846065
5	0x3c41b24a	0.011822293
6	0xbc3eb470	-0.011639699
7	0xbb8abc36	-0.0042338623
8	0xbc671943	-0.014105144
9	0xbc8a61a6	-0.016892266
10	0xbb2515d6	-0.0025190017
11	0xbc31bc2e	-0.010848088
12	0x3cb51297	0.02210359
13	0x3bebf77a	0.0072011324
14	0x3c39d5ed	0.011342508
15	0x3c094b5b	0.008379783
16	0x3c54afae	0.012981338
17	0x3d390894	0.045174196
18	0xbca3723e	-0.019951936
19	0xba998640	-0.0011712983
20	0xbba3b358	-0.0049957447
21	0x3ccdc5da	0.025118757
22	0x3ca0ed9c	0.019644551
23	0x3c00ff54	0.007873375
24	0xbc350a81	-0.011049868
25	0x3b99db56	0.0046953363
26	0xbcc65f28	-0.024215296
27	0x3bf6fc58	0.007537406
28	0xb8a26bc0	-7.744832e-05
29	0xb99e3798	-0.0003017753
30	0xbd055d70	-0.032559812
31	0x3b027aec	0.0019909693
32	0xbc9bf3ed	-0.019037211
33	0x39851d70	0.0002538967
34	0xbc97e52e	-0.018541899
35	0xba2d5c18	-0.00066131493
36	0x3c63c8be	0.013902841
37	0xbc330b66	-0.010928011
38	0xbae5b4f8	-0.0017525246
39	0x3b4684d0	0.0030291565
40	0x3c228b40	0.009920895
41	0xbcc1f110	-0.023674518
42	0xbc9d67c9	-0.019214528
43	0xbb95b616	-0.0045688255
44	0xbba8707a	-0.0051403614
45	0xbc52b99c	-0.012861636
46	0x3c1f3192	0.009716408
47	0xb9bd7e60	-0.00036143046
48	0xbd0920ef	-0.033478674
49	0x3baefa0e	0.0053398674
50	0x3d12b7eb	0.03581993
51	0x3cc3dd41	0.023909213
52	0xbc2341e7	-0.009964443
53	0x3b0dc508	0.0021632332
54	0x3c5ae66b	0.0133606
55	0x3cf9bd68	0.030485824
56	0x3b985bc0	0.0046496093
57	0xbbbb798c	-0.0057212766
58	0xbc6fed2a	-0.014643947
59	0x3cc193b1	0.023629995
60	0xbb9f9c98	-0.0048709624
61	0x3c997cfa	0.018736351
62	0xbbf34942	-0.0074245045
63	0x3d1e4c95	0.038647253

bn1.running_var f4 [64]
0	0x3f1317aa	0.57457983
1	0x3ede8712	0.43462425
2	0x3f6412af	0.8909101
3	0x3f019ebe	0.50632846
4	0x3fb7ba8e	1.4353807
5	0x3f00012e	0.500018
6	0x3ea11032	0.3145767
7	0x3ebb9e1c	0.36644065
8	0x3f33491c	0.7003343
9	0x3f787917	0.9705977
10	0x3ec451db	0.383437
11	0x3f47d8d5	0.78065234
12	0x3f8c7f05	1.0976263
13	0x3ec9ab54	0.39388525
14	0x3eb52f38	0.35387588
15	0x3f2f667e	0.68515766
16	0x3f492876	0.78577363
17	0x3f4d661f	0.8023395
18	0x3eddd7e5	0.43328777
19	0x3f0507fc	0.5196531
20	0x3eee3869	0.46527413
21	0x3f2cf080	0.67554474
22	0x3eae3880	0.3402748
23	0x3f23e816	0.6402601
24	0x3f0b80a0	0.5449314
25	0x3f0ece2c	0.55783343
26	0x3ece3959	0.40278128
27	0x3f3a1822	0.72693074
28	0x3eddf28f	0.4334912
29	0x3f87f57c	1.0621791
30	0x3f3fe055	0.7495168
31	0x3f07382b	0.5282008
32	0x3eccb403	0.39981088
33	0x3efec7b3	0.49761733
34	0x3f0dfb5e	0.5546168
35	0x3ef43789	0.4769862
36	0x3ed63136	0.4183442
37	0x3ec0dca9	0.3766835
38	0x3eca2991	0.39484838
39	0x3f1f2b3d	0.6217535
40	0x3f89495d	1.0725514
41	0x3f58bdb8	0.8466449
42	0x3ebb48bf	0.36578938
43	0x3eafb0b6	0.34314507
44	0x3e5ef2f8	0.21772373
45	0x3f3cbcc6	0.73725545
46	0x3e721baf	0.23643373
47	0x3ee06245	0.43824974
48	0x3f86a26c	1.0518317
49	0x3efcf27c	0.4940375
50	0x3f87d18b	1.0610822
51	0x3eb79913	0.35858974
52	0x3ec6defd	0.38842002
53	0x3f00c356	0.5029806
54	0x3ebfac41	0.37436107
55	0x3f01d16c	0.5071018
56	0x3e25666d	0.16152354
57	0x3f3278cd	0.6971558
58	0x3e4267a4	0.18984848
59	0x3f1ef56d	0.6209324
60	0x3e488e8f	0.19585632
61	0x3f084374	0.53227925
62	0x3ee548d3	0.44782123
63	0x3fba98ec	1.4577918

fc2.weight f4 [32, 64]
0	0xbe4e83ab	-0.20167415
1	0xbd12a0f5	-0.03579803
2	0xbdaac3e5	-0.08338145
3	0x3e592c2f	0.21208261
4	0xbe6ad960	-0.22934484
5	0xbe425a40	-0.1897974
6	0xbe394339	-0.1809205
7	0xbdcc8433	-0.099861525
8	0xbe760912	-0.24026898
9	0x3e0d3b83	0.13792233
10	0xbe05b05b	-0.13055556
11	0x3d996731	0.07490385
12	0xbd0a6334	-0.033786014
13	0x3db8c468	0.090218365
14	0xbd9c3375	-0.07627002
15	0x3d76ccf0	0.060254037
16	0x3dcdfc15	0.100578465
17	0xbdfc5918	-0.12321681
18	0xbd764537	-0.060124602
19	0x3d678423	0.0565225
20	0xbe04f158	-0.1298269
21	0xbda3c717	-0.07996958
22	0xbe8e8304	-0.27834332
23	0xbbad58be	-0.00529012
24	0xbd91227a	-0.07086654
25	0xbc28861e	-0.010285882
26	0x3cc5dbf0	0.024152726
27	0x3ce749c6	0.02823342
28	0x3db99ef7	0.09063523
29	0x3e01bbd6	0.1266931
30	0xbe6b2564	-0.22963482
31	0xbded2aa8	-0.11580402
32	0x3da10d26	0.07863836
33	0xbe2770b6	-0.1635159
34	0x3da0bd5a	0.07848616
35	0xbdf411a7	-0.119174294
36	0xbd0ab088	-0.03385976
37	0x3d56e0d8	0.05246052
38	0x3dd12365	0.10211829
39	0xbda95cfe	-0.0826969
40	0xbcc06e80	-0.02349019
41	0xbd5927a7	-0.05301633
42	0x3e185f5f	0.14880131
43	0xbca77eea	-0.02044626
44	0x3ddb0b65	0.10695533
45	0xbd851727	-0.064985566
46	0xbe889034	-0.26672518
47	0x3e1a6340	0.15076923
48	0xbe455a06	-0.19272622
49	0x3d64a62b	0.055822533
50	0xbe3f8710	-0.18703866
51	0x3db1863f	0.086681835
52	0xbd4d19fc	-0.05007361
53	0xbd10f098	-0.035385698
54	0xbd0504e5	-0.03247537
55	0xbbebc6e2	-0.0071953395
56	0xbc7000cb	-0.014648627
57	0xbe057c42	-0.13035682
58	0xbd75aef0	-0.059981287
59	0xbe39aaed	-0.1813161
60	0xbcd41991	-0.025891097
61	0x3dbddb2f	0.092703216
62	0x3e62635c	0.22108215
63	0xbd87a08c	-0.06622419
64	0x3d94b7ee	0.07261644
65	0x3c07099b	0.008242036
66	0xbd225a52	-0.039636917
67	0xbe451b74	-0.19248754
68	0x3ddc17bf	0.10746717
69	0x3d9bea8a	0.07613094
70	0x3e60888e	0.21927091
71	0xbde99ef4	-0.11407271
72	0x3e25e5e4	0.16200978
73	0x3e22ef38	0.15911567
74	0xbe40fd7a	-0.18846694
75	0xbc0ea988	-0.008707412
76	0xbe4983c9	-0.19679178
77	0xbe4e502c	-0.2014777
78	0xbdc44867	-0.09584122
79	0x3dc55fab	0.09637388
80	0x3d70f86d	0.058830667
81	0x3e2c9ece	0.16857454
82	0x3bfe0a81	0.007752717
83	0xbd512ddf	-0.051069137
84	0x3d490171	0.04907364
85	0x3d174efb	0.036940556
86	0x3e163c05	0.14671333
87	0xbc6a5ace	-0.014303876
88	0x3d82c703	0.06385615
89	0xbdad637a	-0.08466239
90	0xbe87f4f1	-0.26554063
91	0x3cd850dd	0.026405746
92	0x3db521e9	0.088443585
93	0xbe142263	-0.14466242
94	0xbe0cba13	-0.13742857
95	0xbc2de810	-0.01061441
96	0x3daf9db5	0.08575002
97	0xbc912c08	-0.017721191
98	0xbd693685	-0.05693676
99	0x3d89e821	0.06733728
100	0xbd60972e	-0.054831676
101	0x3d9598cc	0.07304534
102	0xbdd13279	-0.10214705
103	0x3d9e5339	0.07730717
104	0x3e5bc657	0.2146238
105	0xbd17e769	-0.037085924
106	0x3d7456a4	0.05965294
107	0xbc5542c6	-0.013016408
108	0xbdb6dffe	-0.08929442
109	0x3caa42fc	0.020783894
110	0x3db79784	0.08964446
111	0x3ebab740	0.36467934
112	0xbd5fe438	-0.054661006
113	0xba5f03c4	-0.0008507336
114	0xbd7cda0d	-0.061731387
115	0x3e42b318	0.19013631
116	0xbe9416fb	-0.28923783
117	0xbd9467dc	-0.07246372
118	0x3e0d235d	0.13783021
119	0x3c88080a	0.016605396
120	0xbe6ddee1	-0.23229553
121	0x3b12525d	0.0022326924
122	0x3cdfdcfe	0.027327057
123	0x3c676ebe	0.014125524
124	0x3e017b74	0.1264475
125	0x3e069c8d	0.13145657
126	0xbcdea44e	-0.027177956
127	0x3dcf4966	0.101214215
128	0x3d3f661d	0.046728242
129	0xbcb19315	-0.02167658
130	0x3d0856be	0.03328585
131	0xbc158225	-0.009125267
132	0xbea14b95	-0.31502977
133	0x3de21ab5	0.1104025
134	0xbdaee16c	-0.085390896
135	0xbe9f520c	-0.31117284
136	0xbdde8fa7	-0.10867243
137	0x3d291d1c	0.041287526
138	0xbea45537	-0.32096264
139	0xbcc4fbe1	-0.024045886
140	0xbeac41e3	-0.33644018
141	0x3e128929	0.14310135
142	0xbec1a6e7	-0.3782265
143	0xbcfe47ed	-0.031040156
144	0xbd46dbbc	-0.0485494
145	0xbe204191	-0.15650012
146	0x3defea5f	0.117146246
147	0xbe0a2cba	-0.13493624
148	0xbd088942	-0.033334024
149	0xbc18871a	-0.0093095545
150	0xbd575ab9	-0.052576754
151	0xbd5e2a4e	-0.054239564
152	0x3b39337a	0.0028259442
153	0xbc192f23	-0.009349617
154	0xbcd7e059	-0.026352094
155	0xbb16f307	-0.002303304
156	0x3d469cfb	0.048489552
157	0xbd0ba8a5	-0.03409638
158	0xbd44cf51	-0.048049275
159	0xbd984cb0	-0.07436502
160	0xbcfa25c7	-0.030535592
161	0x3b8ec8de	0.0043574413
162	0xbd9c424f	-0.07629835
163	0x3aae1928	0.0013282644
164	0xbd6d29d0	-0.057901204
165	0x3d3c1d43	0.045926344
166	0x3d0cfa72	0.03441853
167	0x3ca8b89f	0.020595847
168	0x3da908b7	0.08253615
169	0x3c9dbbfa	0.019254673
170	0xbc7912fc	-0.01520228
171	0xbd42a196	-0.04751738
172	0x3d25b2a2	0.04045356
173	0x3da8a8c2	0.08235313
174	0x3d96db73	0.07366075
175	0x3e0dca9c	0.1384682
176	0xbdb51d42	-0.08843471
177	0xbd32cd96	-0.043653093
178	0xbee7b559	-0.45255545
179	0x3c5d8ca3	0.0135223
180	0xbc3cc96e	-0.011522634
181	0xbc6c7724	-0.014432702
182	0x3bfbf84a	0.0076895105
183	0xbe30b043	-0.17254739
184	0x3ba22710	0.0049485043
185	0xbe1f2003	-0.15539555
186	0xbb91a316	-0.00444449
187	0xbcc4bbf9	-0.024015414
188	0x3df375e2	0.11887719
189	0x3cd0b148	0.02547516
190	0xbc46174d	-0.012090516
191	0xbe3e4633	-0.18581466
192	0xbc8d64df	-0.017260013
193	0x3d6275dd	0.055288184
194	0x3c002b0f	0.007822766
195	0xbd46f2f2	-0.048571534
196	0xbe2a154e	-0.1660969
197	0x3c69d643	0.014272275
198	0xbdc6f66d	-0.09714971
199	0x3cd6d16a	0.026222903
200	0x3d056957	0.032571163
201	0xbc553a90	-0.013014451
202	0xbda162ce	-0.078801736
203	0xbe225ba2	-0.15855268
204	0xbea87b14	-0.329064
205	0xbd1961b0	-0.037446678
206	0xbcd6f2ca	-0.026238818
207	0xbd11bede	-0.035582416
208	0x3cac9281	0.021065952
209	0xbd919bde	-0.071098074
210	0x3d80cd54	0.06289163
211	0x3d39b145	0.045335073
212	0x3c890dbc	0.016730182
213	0x3e32755b	0.1742758
214	0xbdfc14cd	-0.12308655
215	0x3dae0c94	0.08498493
216	0xbd4392ea	-0.04774753
217	0x3d6ef664	0.058340445
218	0x3d00a0af	0.03140324
219	0xbd957c26	-0.0729907
220	0xbb9031de	-0.004400476
221	0xbe2132d7	-0.1574205
222	0x3d904128	0.070436776
223	0x3dc0acc4	0.094079524
224	0xbd3851f8	-0.045000046
225	0x3d5fe3e7	0.054660704
226	0xba5aae9c	-0.0008342059
227	0xbe586acb	-0.21134488
228	0xbe698a07	-0.2280656
229	0x3cb6d3f1	0.022317858
230	0xbd9e8e3d	-0.077419735
231	0x3cb079a0	0.02154237
232	0x3e2c73b2	0.1684101
233	0xbc8f0f44	-0.017463334
234	0x3dc88412	0.097908154
235	0xbe065777	-0.13119303
236	0x3de284a4	0.110604554
237	0x3d28492e	0.041085415
238	0xbcd5c990	-0.026097089
239	0xbe6eec98	-0.23332441
240	0xbcb01fbd	-0.021499509
241	0x3e3102b0	0.17286181
242	0x3da69d26	0.081354424
243	0xbe4df81d	-0.20114179
244	0x3d9de56d	0.07709775
245	0x3dbd51de	0.092441306
246	0xbef08172	-0.4697376
247	0xbe363506	-0.17793664
248	0xbd8ae135	-0.06781236
249	0x3d4adaf9	0.049525235
250	0xbd7ae482	-0.06125308
251	0xbec15a13	-0.37764034
252	0xbd51b3a0	-0.051196694
253	0xbd95954b	-0.07303866
254	0x3e6dc0aa	0.23218027
255	0xbe243be5	-0.16038473

fc2.bias f4 [32]
0	0x3739f7ea	1.1084581e-05
1	0xb865bb20	-5.477213e-05
2	0x374c7cd7	1.2188414e-05
3	0xb66f3458	-3.5644243e-06
4	0x38a7a263	7.9934274e-05
5	0x3740f04c	1.150004e-05
6	0xb78f8501	-1.7108863e-05
7	0xb80470fc	-3.1576477e-05
8	0x37822f96	1.5519367e-05
9	0xb6eda4ca	-7.0823344e-06
10	0x3818a05d	3.6388974e-05
11	0xb844745b	-4.6838406e-05
12	0xb7c0d2fa	-2.2986427e-05
13	0x37aee31b	2.084817e-05
14	0x3859206c	5.1767027e-05
15	0xb71f71c0	-9.503623e-06
16	0x37914d9e	1.732149e-05
17	0xb89b6a40	-7.4107666e-05
18	0x3876eb01	5.8869835e-05
19	0xb796aa8b	-1.7960809e-05
20	0xb7cbf91c	-2.4315486e-05
21	0xb7081ab6	-8.112451e-06
22	0x37bbeded	2.240293e-05
23	0xb7926c44	-1.7454971e-05
24	0x387602d1	5.8653593e-05
25	0xb80b57d8	-3.3221993e-05
26	0xb813e97a	-3.5264973e-05
27	0x3853ffe6	5.0544644e-05
28	0xb7eb0514	-2.8016548e-05
29	0xb7ab557c	-2.0424595e-05
30	0x378780a5	1.6153159e-05
31	0x380cb8d8	3.355075e-05

bn2.weight f4 [32]
0	0x3f894655	1.0724589
1	0x3f75b3d7	0.9597754
2	0x3f819d88	1.01262
3	0x3f85a6b1	1.0441495
4	0x3f836e5c	1.0268054
5	0x3f7b5f65	0.98192436
6	0x3f805380	1.0025482
7	0x3f83477a	1.0256188
8	0x3f83e148	1.0303125
9	0x3f8a717e	1.0815885
10	0x3f8b564c	1.0885711
11	0x3f7b812f	0.98243994
12	0x3f812ab4	1.0091157
13	0x3f84b10c	1.036653
14	0x3f86385c	1.048595
15	0x3f7c87ac	0.9864452
16	0x3f85ae8e	1.0443895
17	0x3f8fdf44	1.124001
18	0x3f72d8c6	0.9486202
19	0x3f82fc3e	1.0233228
20	0x3f81109b	1.0083193
21	0x3f8b074c	1.0861602
22	0x3f960f0c	1.1723342
23	0x3f8b2f14	1.0873742
24	0x3f8abf42	1.0839617
25	0x3f87e084	1.0615392
26	0x3f8d3495	1.1031672
27	0x3f84db9a	1.0379517
28	0x3f90dedd	1.1318012
29	0x3f7feef1	0.9997397
30	0x3f86b96c	1.0525336
31	0x3f88c18c	1.0684066

bn2.bias f4 [32]
0	0xbe0f7883	-0.14010815
1	0xbf204bb9	-0.62615544
2	0xbefd4b21	-0.4947138
3	0xbeb7e316	-0.3591544
4	0xbe850a39	-0.25984362
5	0xbef40ba4	-0.4766513
6	0xbee7c753	-0.4526926
7	0xbebeab44	-0.3724004
8	0xbe908156	-0.28223675
9	0xbe82688a	-0.25470382
10	0xbeccd8d2	-0.4000917
11	0xbdced061	-0.10098339
12	0xbe91a589	-0.28446606
13	0xbe8d701f	-0.27624604
14	0xbeb18cbc	-0.34677684
15	0xbe80dbc3	-0.25167665
16	0xbea2d7ae	-0.31805176
17	0xbe9f9ef0	-0.31175947
18	0xbdd64bd1	-0.104636796
19	0xbee32953	-0.44367465
20	0xbe8624c8	-0.26199937
21	0xbec5b068	-0.3861115
22	0xbe9bdf94	-0.30444014
23	0xbe88164b	-0.26579508
24	0xbe52875e	-0.20559451
25	0xbe5bf4ab	-0.21480052
26	0xbea57dae	-0.32322448
27	0xbe62e974	-0.22159368
28	0xbe952e36	-0.2913682
29	0xbdb8ef31	-0.09029997
30	0xbec71e9c	-0.3889054
31	0xbe9b17b3	-0.3029152

bn2.running_mean f4 [32]
0	0xbf042670	-0.5162115
1	0x3e08b6b6	0.13350949
2	0xbf177ea2	-0.591776
3	0xbef1bbdc	-0.47213638
4	0xbf04e82b	-0.5191676
5	0xbf1cd7bd	-0.6126669
6	0xbf112912	-0.56703293
7	0xbf20f9b5	-0.6288102
8	0xbf19dcf6	-0.60102785
9	0xbeabd81e	-0.33563322
10	0xbf2381d9	-0.63870007
11	0xbee2c25a	-0.44288903
12	0xbeb015cb	-0.34391627
13	0xbf2a843d	-0.6660803
14	0xbf01dbdb	-0.507261
15	0xbd075c60	-0.03304708
16	0xbe86ad1e	-0.26303953
17	0xbf210964	-0.62904954
18	0xbf276c68	-0.6539979
19	0xbf24c715	-0.64366275
20	0x3cf1c5cf	0.029513268
21	0xbf264baa	-0.64959204
22	0xbf25512e	-0.64576995
23	0xbf213164	-0.6296599
24	0xbeffe966	-0.49982756
25	0xbf0d041a	-0.55084383
26	0xbf2dcbb1	-0.67888933
27	0xbed44f3f	-0.4146671
28	0xbf1d5db9	-0.61471134
29	0xbe8db0d9	-0.27673987
30	0xbf3e642f	-0.7437162
31	0xbf1468ea	-0.57972586

bn2.running_var f4 [32]
0	0x3ed63ea3	0.41844663
1	0x3e5f7b53	0.21824388
2	0x3eb7c6c0	0.35893822
3	0x3edcac1d	0.43100062
4	0x3e98bb99	0.29830626
5	0x3eb9e126	0.36304587
6	0x3ec2c2e4	0.38039315
7	0x3ef6bcf9	0.4819105
8	0x3ecba2a8	0.39772534
9	0x3ed20029	0.41015747
10	0x3f054ef1	0.5207358
11	0x3ea5fcac	0.32419336
12	0x3ec189a1	0.37800315
13	0x3f08824d	0.53323823
14	0x3ebdd739	0.37078264
15	0x3e4eb4b5	0.20186122
16	0x3ec0fc49	0.37692478
17	0x3ec9a95d	0.39387026
18	0x3ec31cc7	0.38107893
19	0x3ec6df86	0.3884241
20	0x3e8b7ab1	0.27242044
21	0x3f027f1e	0.50975215
22	0x3eeed77b	0.46648774
23	0x3f295a99	0.66153866
24	0x3ec34e53	0.38145694
25	0x3f322e34	0.6960175
26	0x3ef856ff	0.48503873
27	0x3ec054da	0.37564737
28	0x3f272d48	0.6530347
29	0x3ec78f84	0.3897668
30	0x3ee7d323	0.45278272
31	0x3ebdab99	0.3704498

fc3.weight f4 [1, 32]
0	0x3e400ac8	0.18754113
1	0xbe744ac6	-0.23856649
2	0x3ea8052c	0.32816446
3	0xbe84d390	-0.2594266
4	0xbe687a0c	-0.22702807
5	0x3ebaa887	0.364567
6	0x3eb0cb93	0.34530315
7	0xbe99b4f5	-0.30020872
8	0x3e873374	0.26406443
9	0x3e5459f3	0.20737438
10	0x3e8e2e5a	0.27769738
11	0x3e48d803	0.19613652
12	0xbe6ef8d0	-0.23337102
13	0xbe4fdc3c	-0.20298856
14	0x3e8d85c0	0.27641106
15	0xbe0beebd	-0.1366529
16	0xbe381441	-0.17976476
17	0xbe92ae1c	-0.2864846
18	0x3e31215d	0.17297883
19	0x3e9c654d	0.30546036
20	0xbe0ec625	-0.13942774
21	0xbe623442	-0.22090247
22	0x3e657145	0.2240649
23	0xbe98afe0	-0.29821682
24	0x3e49ede3	0.19719653
25	0xbe896ee1	-0.26842406
26	0x3e6d7f3c	0.23193067
27	0xbe2ecf01	-0.17071153
28	0xbe988d4b	-0.29795298
29	0x3e56cfb3	0.20977668
30	0x3e842b13	0.25814113
31	0x3e8521b7	0.26002285
